NextGenStore/ai-chatbot/data.pth (torch, 5591 bytes, 6 tensors)

l1.weight f4 [8, 66]
000000 0f 99 5d be 47 d9 02 3f 0d 5b 21 3f 57 f7 11 3f
       -0.21640418 0.5111279 0.6302956 0.57018036
000010 a4 f0 c4 be 48 43 26 bd 16 ca 8f 3e 34 de 73 3f
       -0.38464844 -0.04059151 0.28083867 0.9526093
000020 46 d4 b1 3e e6 1a fa 3e ad ad 49 3f be f6 a1 3e
       0.34732264 0.48848647 0.78780633 0.31633562
000030 e6 8e 84 be 8f 4f 05 3f 4b f6 1b 3f fd 75 d5 3e
       -0.25890273 0.5207452 0.6092269 0.4169158
000040 cd f2 b4 3e 84 7b d1 3d e4 71 b1 be 3d 72 5b 3f
       0.35341492 0.10228637 -0.34657204 0.8572119
000050 b3 d7 15 be 19 86 07 bf d2 ed 96 3d ff 3a f7 be
       -0.14633064 -0.5293899 0.073695794 -0.48287198
000060 b8 1d ee be 78 d2 03 be 6a d6 ce 3e 50 76 90 3e
       -0.4650705 -0.12873256 0.4039796 0.28215265
000070 be 5e 52 3e 63 47 e7 3e 41 81 e6 3e b9 fd e7 3e
       0.20543954 0.4517165 0.45020488 0.45310763
000080 31 d1 3c 3f e8 24 b0 3e 2c 9d b8 bd 31 43 0f 3f
       0.737567 0.34403157 -0.09014353 0.559619
000090 f1 78 21 3f 23 a3 c9 3d 0e aa 94 3e 5d 26 f7 be
       0.63075167 0.09845569 0.2903599 -0.48271456
0000a0 27 cc b3 3e df 31 b2 3e b8 22 32 3f 4d 7e 89 3e
       0.35116693 0.34803674 0.69584227 0.26854172
0000b0 06 15 cb 3e 5a af ef 3e 08 7b 00 3f 13 c0 e6 3e
       0.39664477 0.4681347 0.5018773 0.45068416
0000c0 9a b2 a5 be 63 d8 4e 3e 22 77 fa 3e f0 ee db be
       -0.32362825 0.20199732 0.48919016 -0.42955732
0000d0 f9 82 f6 3e 6f 8f 0d 3f 5c 10 56 be 3c 78 42 3e
       0.481468 0.5529699 -0.20904678 0.18991178
0000e0 01 c3 7e be 74 66 f3 3e 7b d9 09 bd 21 d6 55 3e
       -0.24879076 0.47539103 -0.03365467 0.20882465
0000f0 e8 ba 70 be a5 c0 61 be 82 be 8e 3d 34 c5 b7 3e
       -0.23508799 -0.22046144 0.0696993 0.35892642
000100 7f f2 89 3e 1f 90 08 3e 64 e8 63 be 98 1d a2 be
       0.26942822 0.13336228 -0.22256619 -0.31663203
000110 d8 11 e3 bd 06 ba 80 3e b4 44 75 3e e6 30 e0 3e
       -0.11087388 0.25141925 0.2395199 0.43787307
000120 4d 65 01 3e fa df f0 be 25 fc de 3d 4b 7f 67 3d
       0.126363 -0.4704588 0.108879365 0.05651788
000130 a9 73 c4 bd 67 d6 f9 3d 8d f6 a7 3e 7b 8a ba be
       -0.09592373 0.12199097 0.3280529 -0.36433777
000140 63 9f cf 3e c9 a0 61 be f4 aa 1b be ee d2 aa be
       0.4055129 -0.22033991 -0.15201932 -0.33364052
000150 c5 f7 a3 3e d7 30 f8 be 0e b5 be 3e c7 81 08 3f
       0.3202497 -0.48474762 0.3724751 0.53323025
000160 5a 7b 91 bd 18 13 01 3f 13 1a 09 3f 13 9f f1 3e
       -0.071036056 0.5041976 0.5355541 0.47191676
000170 fe ab 29 3e ca d3 b2 3e 84 87 00 3f 32 99 bc be
       0.16569516 0.34927207 0.5020678 -0.3683563
000180 a1 4d d4 3e 30 47 74 be be 3f 07 bf 25 2f 8a be
       0.41465476 -0.23855281 -0.5283164 -0.26989093
000190 2a ce d1 3d 1a c9 26 be 2e 59 ad bd 20 28 85 3e
       0.10244401 -0.16287652 -0.08464275 0.26007175
0001a0 35 4a 1b 3e 20 e7 f5 3e 9c 17 ce 3e ef 95 15 3e
       0.15165026 0.48027897 0.40252388 0.14607976
0001b0 2f 2a bf bd 33 ee df 3e cf 52 8a bd f5 2f 10 3d
       -0.09334218 0.4373642 -0.06754076 0.035201985
0001c0 91 60 d5 3e c9 1e a6 3d 97 0f dd 3e 5d 15 90 be
       0.41675237 0.081113406 0.43175957 -0.281413
0001d0 63 e1 34 be 93 2d 8e 3e ee 39 3e be 0b b3 93 bd
       -0.17664103 0.27769145 -0.18576786 -0.07211884
0001e0 86 92 02 bf 54 51 44 be 3f 4a ab 3e 94 fd ba 3e
       -0.5100483 -0.19171649 0.33455083 0.3652159
0001f0 f8 dd 07 3f e0 b3 f0 be 07 1e ac 3e e4 7d fd 3e
       0.5307307 -0.47012234 0.3361666 0.4951011
000200 dd 6d 80 3e b8 07 c0 bc 03 9f 05 3d 25 a0 99 3d
       0.2508382 -0.02344118 0.03262235 0.07501248
000210 2e 1e 0b be cf ec ab 3e f1 b0 20 3f 2d 08 05 3f
       -0.13585731 0.33579108 0.6276999 0.519656
000220 75 e0 8a be 9f 10 22 3f 72 44 a8 3e 8c 64 d3 be
       -0.27124372 0.6330661 0.3286472 -0.4128765
000230 11 6c c4 3e 24 1b f6 3e 0c 43 10 3f 3e 02 af 3e
       0.38363698 0.48067582 0.56352305 0.34181398
000240 d7 18 e0 3d 71 32 25 3f fd 8d 30 3f 93 33 55 3f
       0.10942238 0.6453009 0.68966657 0.8328182
000250 47 7c 9d 3e 1d ba 0b 3e 8c 70 b3 3d d6 d8 dc be
       0.3075888 0.13645215 0.08761701 -0.43134183
000260 fa 5d 0c 3e 13 39 4f 3d a2 8c 19 be 8e 4d 76 3d
       0.13707724 0.05059154 -0.14995053 0.060132556
000270 03 fa 04 3e b3 3c bb be d4 a6 dd 3e 14 d0 17 3f
       0.12985997 -0.36569747 0.43291342 0.5930188
000280 49 2a 7b 3e 85 8c 99 3e 13 d5 ce 3d 42 39 0a 3d
       0.2452785 0.2999002 0.100992344 0.03374601
000290 30 ab 9c be 76 34 39 3f fe 62 8d bd 06 b1 12 3f
       -0.30599356 0.72345674 -0.06903647 0.57301366
0002a0 fc ed f3 3e 65 e9 7a 3e 8a 7a 01 3f e2 1d e6 3d
       0.47642505 0.24503095 0.50577605 0.112361684
0002b0 f3 b1 a7 3e 7d 6e fd 3e 99 06 0e 3f 4c dd ff 3e
       0.32752952 0.49498358 0.5547882 0.49973524
0002c0 89 67 e9 3e 44 45 b7 3e 9a a2 cc 3e 66 ee e8 be
       0.45586804 0.35795033 0.39967805 -0.45494384
0002d0 f8 5f 93 3e 73 87 23 3f 8d c7 af 3e 61 68 14 bf
       0.28784156 0.63878554 0.34331933 -0.5797177
0002e0 81 a9 2c 3f e6 ae f0 3e bc b1 28 bf 96 2c 15 be
       0.6744614 0.47008437 -0.658962 -0.1456779
0002f0 43 29 fa 3d 75 ae 07 3f 6c 87 35 3f 8e ac bd 3e
       0.12214901 0.53000575 0.7090976 0.3704571
000300 59 e8 3d bb 1d 7b 5d 3e 86 6b 70 3f b2 3a ae 3e
       -0.0028977601 0.21628995 0.9391407 0.34029156
000310 8f 01 c7 3e d5 f2 b3 3e c7 7b 18 be 3d a9 d6 bd
       0.38868377 0.35146204 -0.14890967 -0.104814984
000320 e5 3c 4b be a6 c7 b9 3e dc 8d a0 3e 30 2a 91 3e
       -0.19847448 0.36285132 0.3135823 0.283525
000330 28 8f cc bd 36 36 03 bf 7e 68 1d be 23 59 d4 bc
       -0.099882424 -0.51254594 -0.15371892 -0.02592141
000340 1a d5 39 be d1 76 50 be 9d 64 a1 3e b5 e1 77 be
       -0.18147698 -0.20357825 0.31522074 -0.24207194
000350 c2 2c f1 3e f8 ef 32 be 1f fb 11 3d 60 14 c3 be
       0.4710446 -0.17474353 0.03563988 -0.38101482
000360 c3 ff c5 3e 1d 33 03 bf 04 20 fc 3e 3b 10 11 3f
       0.38671693 -0.5124987 0.49243176 0.5666539
000370 2d 4f 3d be a6 99 0d 3f 0d f1 0f 3f 51 10 d8 3e
       -0.18487234 0.55312574 0.5622719 0.42199948
000380 d9 3e 88 bc b7 ea 42 3d be bf ca 3e e5 2e b0 be
       -0.01663153 0.047587123 0.39599413 -0.34410778
000390 28 18 51 3e 12 d6 16 be 3e 20 06 bf 4b ca a3 be
       0.20419371 -0.14730099 -0.5239295 -0.31990275
0003a0 b3 d0 f7 3c 06 ff 34 be b1 c9 e2 bd e9 7c 65 bc
       0.030250883 -0.17675409 -0.11073626 -0.014006832
0003b0 fb 09 0c bf 0f 52 e0 3e 4a 32 5b 3e e0 09 2b bd
       -0.5470273 0.43812606 0.21405903 -0.041757464
0003c0 52 17 44 be 32 ab a9 3e 74 8e 00 bd 21 b7 73 3d
       -0.19149521 0.33138424 -0.031385854 0.059500817
0003d0 73 2b 52 3e c2 de d8 3d 9a bb 37 3f b3 b1 5f be
       0.20524387 0.10589363 0.7177063 -0.2184513
0003e0 59 5a 0d bd ac 5b 1a 3f dc c0 62 be 66 19 10 be
       -0.03450999 0.6029613 -0.22143883 -0.14072189
0003f0 f9 35 03 bf 71 29 37 be 84 e2 cf 3e 67 8b ae 3e
       -0.5125423 -0.17886902 0.40602505 0.3409073

l1.bias f4 [8]
000000 04 04 1b 3f e1 79 f8 3e 82 df dc 3e 47 30 03 3f
       0.60553 0.48530486 0.43139273 0.5124554
000010 92 0d 6d 3f 62 b9 55 3f a0 68 77 3f 9f ce 5f 3f
       0.9259883 0.83485997 0.9664402 0.87424654

l2.weight f4 [8, 8]
000000 2a f8 1b bf 44 f3 9e 3f 9c 92 b1 3f 44 20 77 3f
       -0.60925543 1.2417989 1.3872867 0.9653361
000010 5c 9f 1c 3f ba b3 03 bd 95 9c 00 bf 30 50 7a 3f
       0.61180663 -0.032153822 -0.50238925 0.97778606
000020 66 f4 6f be 1f 40 3f bf 55 b6 8b bd 14 27 28 bf
       -0.23433074 -0.74707216 -0.068218865 -0.6568463
000030 c2 03 bf bc 2b f2 29 3f 64 d5 82 3f b6 47 ab 3f
       -0.023317222 0.66385144 1.0221372 1.338126
000040 c9 fe e2 be ec ee 82 3f 63 1b 97 3c 47 62 a7 3f
       -0.4433501 1.0229163 0.018445676 1.3076867
000050 3c f4 a2 3e 5c 2d b8 3f 0f ef 9d 3f 89 36 11 be
       0.3182696 1.4388843 1.233858 -0.1418096
000060 97 8d c0 3f 8b a1 38 3e f2 6f 44 3f 55 ac 22 bf
       1.504321 0.18030374 0.76733315 -0.6354421
000070 18 63 7c 3f 84 84 66 bf 8e 43 04 bf da 66 4b 3f
       0.98588705 -0.9004595 -0.5166558 0.79453814
000080 f9 e0 3a 3d 05 f4 a1 be b8 3e 82 be e8 35 9f bf
       0.045624707 -0.31631485 -0.25438476 -1.2438326
000090 43 c2 d1 bc 48 29 1e 3f 25 c0 83 3f 07 3e 4e 3f
       -0.025605327 0.6178174 1.0293013 0.80563396
0000a0 37 87 f2 3c 96 d0 54 be ed 2c 90 bf 71 32 2d 3f
       0.029605491 -0.20782694 -1.126371 0.6765509
0000b0 60 66 c3 3f 6d e0 72 3e f3 93 b2 3e 40 36 8c 3f
       1.5265617 0.23718424 0.348785 1.0954056
0000c0 64 46 ea bd b0 91 cf bd 50 fa a1 3d 71 85 96 be
       -0.11439207 -0.101352096 0.079090714 -0.29398683
0000d0 67 0f 63 be 5e 55 89 be da e8 32 be 79 39 1c be
       -0.22173844 -0.26822942 -0.17471638 -0.15256299
0000e0 0c dc b0 3f 88 3e e6 be ba 4c 25 3f e7 90 82 be
       1.3817153 -0.44969583 0.645702 -0.25501177
0000f0 55 03 94 bd 41 84 44 3f dd 3f d2 3d 0b ec 47 bf
       -0.07227198 0.76764303 0.10266087 -0.7809455

l2.bias f4 [8]
000000 37 0c ae bd 4f 51 dd 3e f7 99 c3 3e 37 65 02 3f
       -0.084984235 0.43226096 0.38203403 0.5093569
000010 a2 37 46 3f 6d cf 04 3f 00 4d 0c bc f7 f4 80 3e
       0.7742864 0.51879007 -0.00856328 0.25186893

l3.weight f4 [9, 8]
000000 0d 0c 39 3e 1d 55 af 3e 93 f6 b0 bf 98 d8 20 3f
       0.18071003 0.34244624 -1.3825248 0.62830496
000010 08 48 49 bf a6 ef 39 3e 9c 9a d4 3d 4e 68 33 bf
       -0.78625536 0.18157825 0.10381052 -0.7008103
000020 c0 43 ac bf 4a eb 3a 3e 4a 00 5b 3e 48 94 71 bf
       -1.3458176 0.18253818 0.21386829 -0.94366884
000030 48 6a 9c 3d f9 30 87 bf d4 75 62 be f6 ab 76 3f
       0.07637459 -1.056182 -0.2211526 0.9635614
000040 a9 bf a9 bf 27 71 89 be 03 12 9f be 5f 5d dc 3e
       -1.3261615 -0.2684414 -0.3106843 0.43039986
000050 e9 ce 48 3e ca 99 32 3f b0 d4 49 bd 95 a6 80 bb
       0.1961018 0.69765913 -0.0492751 -0.003926108
000060 d5 e7 b8 3e 56 70 31 3e 56 0b e7 3e b9 42 61 bf
       0.36114374 0.17328009 0.45125836 -0.87992436
000070 67 18 0f bf 8e 71 38 3f 45 58 a3 3e ff 8a c2 bf
       -0.5589661 0.7204827 0.31903282 -1.5198668
000080 82 92 a3 3e b1 fa 86 bf 03 56 56 3f 06 8b 66 bf
       0.31947714 -1.0545255 0.83724993 -0.9005588
000090 ce eb d4 bf 70 26 4d bf ed 1d 3e be 57 54 12 3c
       -1.6634462 -0.80136776 -0.18566103 0.008931241
0000a0 7c 0d d1 3e e3 65 0d 3e ae 23 04 3e 9f 4d 0b 3e
       0.408306 0.13808398 0.12904236 0.13603829
0000b0 1e 67 11 3e 3d 6e ae bf 42 af 1f be f7 00 02 bf
       0.14199492 -1.3627392 -0.155942 -0.5078272
0000c0 5c 63 eb 3e fc 3b 91 bf 21 8b 54 3b 9e 24 ba 3e
       0.45974243 -1.1346431 0.003243156 0.36356062
0000d0 32 3b ce bf 9b d3 de 3e 26 cb 25 3e 90 40 8c bf
       -1.6111815 0.43520817 0.16190776 -1.0957203
0000e0 07 ca 6e 3e 39 b0 8d bf f0 2a 0e bf bc 5d 3f 3f
       0.23319255 -1.1069404 -0.5553427 0.747524
0000f0 81 27 e1 bf e5 08 84 bf ab fd 41 be 5a 69 4a 3f
       -1.7590181 -1.0315214 -0.18944423 0.79067004
000100 71 34 cb bf 1d a6 4a 3f a6 29 95 3d fe aa ed bf
       -1.5875379 0.7915972 0.072833344 -1.8567808
000110 47 6d 1f 3f df 0a ac 3e a2 09 36 3e 43 32 0a bf
       0.6227612 0.33602044 0.17777112 -0.53982943

l3.bias f4 [9]
000000 30 d9 06 bf 10 f7 00 be da 78 e8 3e 12 f4 8e be
       -0.5267515 -0.12594247 0.45404702 -0.27920586
000010 d0 12 14 3e 27 ab 08 3d ae 53 1b bf 5c 69 8b 3e
       0.14460301 0.03336635 -0.6067456 0.2722882
000020 8b 2e 91 3e
       0.28355822
